wandb/run--cfwyf4zg/VAE_model_None.pt (torch_old, 188839 bytes, 23 tensors)

enc_lstm.weight_ih_l0 f4 [144, 3]
0	0x3ea79a60	0.32734966
1	0xbd4898dc	-0.048973903
2	0x3e485fcb	0.19567792
3	0x3e45bec4	0.19311053
4	0x3e386066	0.18005523
5	0xbd9fd4a6	-0.07804231
6	0x3dee92c9	0.11649091
7	0xbef3884f	-0.47564933
8	0xbd18ff65	-0.03735294
9	0xbdae6b6c	-0.08516583
10	0xbdffe193	-0.12494197
11	0x3f311c5b	0.6918389
12	0x3e6994a4	0.22810608
13	0x3eb6734c	0.3563484
14	0x3f4862e8	0.7827592
15	0x3ebbfb1e	0.36715025
16	0x3dc3cb7e	0.095602974
17	0xbd24e0a6	-0.040253304
18	0x3eb69525	0.35660663
19	0x3ea9b8d1	0.33148816
20	0x3ef25ff2	0.47338825
21	0xbe279298	-0.16364515
22	0xbe24d113	-0.1609538
23	0xbdc04942	-0.09388973
24	0xbd8ea50b	-0.06965073
25	0x3e8a9d7e	0.27073282
26	0xbe1a5439	-0.15071191
27	0x3afe95d8	0.0019423319
28	0x3f097b0c	0.5370338
29	0x3eab11db	0.3341206
30	0x3e774cab	0.2415034
31	0x3d6fb322	0.058520444
32	0xbe39c2e0	-0.18140745
33	0xbe08d357	-0.1336187
34	0x3eab569d	0.33464518
35	0x3e4c3d48	0.19945252
36	0x3eab4312	0.33449608
37	0x3e17d6f3	0.1482809
38	0x3e8bf1cd	0.27332917
39	0x3d4bea1b	0.049783807
40	0x3dfdf809	0.124008246
41	0x3dc0797d	0.09398172
42	0xbd15e352	-0.036593743
43	0x3e488bcb	0.19584577
44	0x3f1f2a5f	0.6217403
45	0xbbd659cd	-0.006541467
46	0xbc5645d9	-0.013078176
47	0xbf6efaca	-0.93351424
48	0x3c9c50df	0.019081531
49	0xbe6479be	-0.22312066
50	0xbf27e1b1	-0.6557875
51	0x3e6fa6d8	0.2340349
52	0x3dad4d7a	0.08462043
53	0x3ec94dd5	0.39317194
54	0x3e01465f	0.126245
55	0xbe26bfee	-0.16284153
56	0x3e14e161	0.145391
57	0xbbf5e23d	-0.0075037763
58	0x3cd823d5	0.026384274
59	0x3e156186	0.14587983
60	0x3dfc4d8a	0.12319477
61	0xbebe7521	-0.37198737
62	0xbe986dec	-0.29771364
63	0x3e992492	0.29910713
64	0x3d266f75	0.040633637
65	0xbf24ec38	-0.6442294
66	0x3e23af5d	0.15984865
67	0xbe616095	-0.220095
68	0x3e530da6	0.20610675
69	0xbe16bed6	-0.14721236
70	0x3ef3bf8b	0.47607073
71	0xbf2c6b9e	-0.6735171
72	0x3e0aa615	0.13539918
73	0x3ed4a7c3	0.41534242
74	0x3ed49cbf	0.41525838
75	0x3e873e5a	0.26414758
76	0xbde8add7	-0.11361282
77	0x3e9566c7	0.29179975
78	0xbdfb5e1e	-0.12273811
79	0xbecbe7ac	-0.3982519
80	0xbe74019f	-0.23828743
81	0x3ef5a06f	0.47973964
82	0xbb7fdc04	-0.0039041052
83	0xbd9ea0f4	-0.07745543
84	0x3c5ccaa8	0.013476051
85	0x3ee4e3cf	0.44705054
86	0x3eb6849d	0.3564805
87	0xbe8adf09	-0.27123287
88	0x3e97e2c1	0.29665187
89	0x3f0dc769	0.553824
90	0xbc39ec6b	-0.01134787
91	0xbe818ce4	-0.25302804
92	0x3ecacf29	0.39611176
93	0x3e13745e	0.1439986
94	0xbc079690	-0.008275643
95	0xbd908c9c	-0.07058069
96	0x3d7df4b0	0.06200093
97	0x3e67fd8e	0.22655317
98	0xbecf96c4	-0.40544713
99	0xbe3982e6	-0.1811634
100	0xbe9d3021	-0.30700782
101	0x3db06340	0.086126804
102	0xbe88bc43	-0.26706132
103	0xbe86a3f7	-0.2629697
104	0xbef45097	-0.47717735
105	0x3e7a5f5c	0.24450439
106	0x3ec34112	0.38135582
107	0x3e29d4b6	0.16585049
108	0xbe658ce1	-0.22417022
109	0x3db8c48f	0.090218656
110	0xbe1ce131	-0.15320279
111	0x3eaf12a5	0.34193912
112	0x3e0a082e	0.13479683
113	0x3dffe4b9	0.12494797
114	0xbdae7572	-0.08518495
115	0x3e519fc7	0.20471106
116	0x3e56e91f	0.20987366
117	0x3e2a10b4	0.16607934
118	0x3e42ed79	0.19035901
119	0xbe086347	-0.13319121
120	0xbdbb0aff	-0.09132957
121	0x3eb69b82	0.35665518
122	0x3f436cef	0.76338094
123	0xbdbdabb3	-0.09261265
124	0xbdeef873	-0.11668482
125	0x3d4c839a	0.049930193
126	0xbeb5c6c3	-0.35503206
127	0xbe82a2ce	-0.25514835
128	0xbe83c3ee	-0.2573542
129	0xbe8fd40c	-0.28091466
130	0xbeb204b5	-0.34769216
131	0x3ec1400f	0.37744185
132	0x3e0fd2c1	0.1404524
133	0x3da27aa3	0.07933547
134	0x3e65e8ff	0.22452162
135	0x3d893d09	0.06701095
136	0x3eb93ae3	0.3617774
137	0xbe65d1c3	-0.22443299
138	0xbe7716ff	-0.24129866
139	0xbeb66624	-0.35624802
140	0xbe71b3c2	-0.23603728
141	0x3e2d1c16	0.16905245
142	0x3d35dca5	0.044399876
143	0x3e9f197e	0.31074136
144	0x3dc81828	0.097702324
145	0x3edaa27f	0.427021
146	0xbe101bdd	-0.14073129
147	0x3f1467d5	0.57970935
148	0xbefa8f30	-0.48937368
149	0xbe092986	-0.13394746
150	0xbef0e761	-0.47051528
151	0xbef08989	-0.4697993
152	0xbe2e3078	-0.17010677
153	0x3f06cee0	0.52659416
154	0x3ed75be4	0.42062294
155	0x3ed71d4d	0.42014542
156	0xbe3f8f35	-0.18706973
157	0xbce5a145	-0.028031
158	0xbe5aa88f	-0.21353363
159	0xbecee2f3	-0.40407524
160	0xbe8befa0	-0.27331257
161	0xbf3689d9	-0.7130409
162	0xbf23837d	-0.6387251
163	0xbc330774	-0.01092707
164	0xbee1f3b9	-0.44131258
165	0xbe6eeb78	-0.23332012
166	0xbd6d44bd	-0.057926882
167	0xbeb9bd03	-0.36277017
168	0x3f0fc159	0.561544
169	0xbeaf10d7	-0.34192535
170	0xbfb32a24	-1.3997235
171	0xbcdc4803	-0.026889807
172	0x3e96eba8	0.29476666
173	0xbed8f344	-0.42373097
174	0xbe641f08	-0.22277462
175	0x3dd32b5b	0.10311004
176	0xbe7540b3	-0.23950462
177	0xbeb8d101	-0.36096957
178	0x3e919717	0.28435585
179	0xbe721248	-0.23639786
180	0x3ec9ac60	0.39389324
181	0x3da48e82	0.08034994
182	0xbf561277	-0.83621925
183	0x3c241407	0.0100145405
184	0x3d9655d0	0.07340586
185	0xbf5a49e0	-0.85268974
186	0xbe395090	-0.18097138
187	0xbef23a6c	-0.47310197
188	0x3d23bf72	0.0399775
189	0xbe5e8a68	-0.21732485
190	0x3d302fd6	0.04301437
191	0xbf1d5ab6	-0.6146654
192	0xbeb343e1	-0.35012725
193	0xbef01d34	-0.4689728
194	0xbcc90af1	-0.02454135
195	0x3e5265e9	0.20546688
196	0xbe192e3e	-0.14959046
197	0xbf32667b	-0.6968762
198	0x3f011db6	0.5043596
199	0x3e368c13	0.17826872
200	0xbf3cb353	-0.7371113
201	0xbe6b2dfc	-0.2296676
202	0xbe2619e0	-0.16220808
203	0xbe96614b	-0.29371104
204	0xbd672988	-0.05643609
205	0xbec6d79c	-0.38836372
206	0xbe67aa43	-0.22623543
207	0x3de00196	0.109378025
208	0x3de402f2	0.11133374
209	0xbf89898a	-1.0745099
210	0x3f07511e	0.5285815
211	0xbe868790	-0.262753
212	0xbefd41a6	-0.49464148
213	0xbe8bf364	-0.2733413
214	0xbe96064c	-0.2930168
215	0x3f28087b	0.6563794
216	0x3efc0b84	0.49227536
217	0x3e06651e	0.1312451
218	0xbea1aede	-0.31578726
219	0x3f156732	0.5836059
220	0x3dc92c53	0.09822907
221	0xbf24606c	-0.6420963
222	0xbf10c025	-0.5654319
223	0x3e7962c4	0.24354082
224	0xbea5f50b	-0.32413515
225	0xbe857ffd	-0.2607421
226	0x3da92fdd	0.08261082
227	0xbddf612d	-0.10907207
228	0xbdd6779e	-0.10472034
229	0xbf06cdfa	-0.52658045
230	0xbe82c462	-0.25540453
231	0x3e9c731c	0.3055657
232	0xbe1afa56	-0.15134558
233	0x3e8ec015	0.27880922
234	0x3d986a03	0.07442095
235	0x3c64b4b8	0.013959102
236	0xbe91f10d	-0.2850422
237	0x3eb86e44	0.36021626
238	0x3e49aef3	0.19695644
239	0xbe58c4ba	-0.21168795
240	0x3dc74c59	0.09731359
241	0xbe0eb0c7	-0.13934623
242	0xbe299092	-0.16559055
243	0x3e121ab7	0.14268003
244	0xbeaddae7	-0.33956072
245	0x3f1b260e	0.6060494
246	0x3d279dc1	0.04092193
247	0xba63939f	-0.000868136
248	0x3d5f857d	0.054570664
249	0xbefd3002	-0.4945069
250	0xbcdc241f	-0.026872693
251	0xbeca3c8c	-0.3949932
252	0x3eb38874	0.35065043
253	0xb981e60b	-0.00024776193
254	0x3ecef0dc	0.40418136
255	0xbea7aa69	-0.327472

enc_lstm.weight_hh_l0 f4 [144, 48]
0	0xbdbc36c7	-0.091901354
1	0xbd878acd	-0.06618271
2	0xbe06635a	-0.13123837
3	0x3e91e59d	0.28495494
4	0x3e99ac76	0.3001439
5	0xbddb9b28	-0.10722953
6	0x3e069f61	0.13146736
7	0x3de4b5be	0.11167477
8	0xbc0bd446	-0.008534497
9	0x3d590f58	0.05299315
10	0xbcede0ac	-0.029037796
11	0x3d1820ff	0.037140843
12	0x3d7fad34	0.06242104
13	0x3e669224	0.22516686
14	0x3deba6c8	0.115064204
15	0xbe8f6c55	-0.28012338
16	0x3e0a7efb	0.13525002
17	0xbe0358f0	-0.12826896
18	0x3e0ec385	0.13941772
19	0xbc285e88	-0.010276444
20	0x3e7263aa	0.23670831
21	0xbd8023fb	-0.06256863
22	0xbc14491b	-0.009050633
23	0x3e29b837	0.16574179
24	0xbcc7f73e	-0.024409886
25	0xbc66582b	-0.014059107
26	0x3d3d2659	0.04617915
27	0xbdaa0cc7	-0.08303218
28	0xbc8e9f71	-0.017410012
29	0x3e1a26f8	0.15053928
30	0x3e7b109d	0.24518056
31	0x3dc61d8f	0.096736066
32	0xbd419541	-0.04726148
33	0xbd9e9ed0	-0.07745135
34	0x3e371649	0.17879595
35	0x3c8433c7	0.01613797
36	0x3e85694a	0.26056892
37	0xbe899614	-0.26872313
38	0xbe9a9124	-0.30188859
39	0x3de4f952	0.111803666
40	0x3de185b6	0.110118315
41	0xbddb7408	-0.107154906
42	0xbe21c88b	-0.15799157
43	0xbdcb8e29	-0.09939224
44	0xbce1a9ed	-0.027546847
45	0x3e4ad451	0.19807555
46	0xbda94ad4	-0.082662255
47	0x3dafb41e	0.085792765
48	0xbdf7b7fb	-0.12095638
49	0x3d9ffdb8	0.07812065
50	0xbc291f63	-0.010322425
51	0xbe6282aa	-0.22120157
52	0xbd0f1fc6	-0.03494241
53	0x3d8ef795	0.06980816
54	0x3e41e9c6	0.18936834
55	0x3d266cd5	0.040631134
56	0xbe01c110	-0.12671304
57	0xbc8fa90c	-0.017536663
58	0x3cafe55c	0.021471672
59	0xbd5f6b61	-0.054545764
60	0xbe99b523	-0.3002101
61	0x3d756cbb	0.059918147
62	0xbd6a4bcc	-0.05720119
63	0xbe0735c6	-0.13204107
64	0xbd784754	-0.0606149
65	0xbdd2f0aa	-0.10299809
66	0x3c91e004	0.017807014
67	0xbdae9594	-0.085246235
68	0x3e02a09c	0.1275658
69	0x3d9460c7	0.07245021
70	0x3e7d25d7	0.24721466
71	0xbc7df792	-0.01550092
72	0xbdad58c8	-0.08464199
73	0xbd46c9d6	-0.04853233
74	0xbdb99174	-0.09060946
75	0x3e48ae8d	0.19597836
76	0xbb8c7361	-0.004286215
77	0x3d105ab5	0.035242755
78	0x3c91029a	0.017701436
79	0x3b7dfb9a	0.0038754703
80	0x3da7fece	0.08202897
81	0xbd5610a9	-0.052261982
82	0x3db18451	0.086678155
83	0x3e38a57b	0.18031876
84	0x3ea027ab	0.31280264
85	0xbe06f578	-0.13179576
86	0xbc0bb311	-0.0085265795
87	0x3cb425bf	0.021990655
88	0x3bd76ccd	0.0065742494
89	0x3c17afa8	0.009258188
90	0xbc8edd05	-0.017439375
91	0xbe086e28	-0.13323271
92	0xbbe36414	-0.0069394205
93	0x3cdb42de	0.026765283
94	0x3ea1ca14	0.31599486
95	0xbc04bb1b	-0.00810125
96	0x3e0602fb	0.13087074
97	0xbdb7e5f9	-0.08979411
98	0x3da87738	0.08225864
99	0x3ebfb108	0.37439752
100	0x3ccf04fd	0.025270933
101	0x3e306f01	0.17229845
102	0xbea22b16	-0.31673497
103	0x3d560697	0.05225238
104	0x3da62470	0.08112419
105	0x3ef7d92f	0.48407885
106	0x3e4639f7	0.1935805
107	0x3e44461c	0.1916737
108	0x3dd2ccba	0.10292955
109	0x3e27acd4	0.16374522
110	0x3eadaf5f	0.3392286
111	0x3e8e0279	0.2773626
112	0x3e42680e	0.18985006
113	0xbe8fcb92	-0.28085
114	0xbe8de3e8	-0.2771294
115	0xbdabe829	-0.083938904
116	0xbdc409bc	-0.09572169
117	0xbe976966	-0.295726
118	0xbe3a9e37	-0.18224417
119	0x3e3c529b	0.18390886
120	0xbd8fc3ea	-0.070197895
121	0x3d5aa74f	0.053382214
122	0x3df4b263	0.11948087
123	0xbc04cf7b	-0.008106108
124	0xbd87becd	-0.06628189
125	0x3e3fe4f2	0.1873968
126	0x3eaa8d40	0.3331089
127	0xbe6721c7	-0.22571479
128	0xbdb4d21c	-0.08829138
129	0xbdf20998	-0.11818236
130	0x3d1622cb	0.036654275
131	0x3e407b7d	0.18797107
132	0x3e850bfa	0.259857
133	0xbd4ef597	-0.05052718
134	0x3e16f8aa	0.14743295
135	0xbebfc148	-0.3745215
136	0xbd1be3cd	-0.038059045
137	0x3e9385ad	0.28812924
138	0x3d70188f	0.05861717
139	0x3e8dcb14	0.27694
140	0x3dab040b	0.083503805
141	0x3d79b536	0.06096383
142	0x3e0737c0	0.1320486
143	0x3c7da793	0.015481847
144	0x3e1b1dce	0.15148088
145	0xbe5abb09	-0.21360411
146	0xbd364700	-0.044501305
147	0xbd333aae	-0.043757133
148	0xbe6b6ba1	-0.22990276
149	0x3d0a67e9	0.033790503
150	0xbd93cf49	-0.07217271
151	0x3de46080	0.111512184
152	0xbd5ad916	-0.053429686
153	0x3deea017	0.116516285
154	0x3e57151e	0.2100415
155	0xbd1f3823	-0.038871896
156	0x3dfd4c40	0.12368059
157	0x3d2bc871	0.041939203
158	0x3e035873	0.1282671
159	0x3f025a94	0.5091946
160	0xbe0d1a66	-0.13779601
161	0xbe399338	-0.18122566
162	0xbb482d68	-0.0030544642
163	0x3e3863d3	0.1800683
164	0xbe77f2f1	-0.24213769
165	0xbe599c7d	-0.21251102
166	0xbeca1801	-0.3947144
167	0x3e72fc83	0.23729138
168	0xbd24d65d	-0.040243495
169	0x3c68951d	0.014195708
170	0x3e957b51	0.29195645
171	0xbecf5eb5	-0.40501943
172	0xbe5735d6	-0.2101663
173	0x3de5b4c3	0.11216118
174	0xbdda7b9a	-0.106681064
175	0xbe301089	-0.17193808
176	0xbcb04c7b	-0.021520844
177	0x3e0d5dd5	0.13805325
178	0x3c7b505d	0.015338984
179	0xbe40dfed	-0.18835421
180	0x3d2f37cd	0.042777825
181	0x3cbd3afe	0.023099419
182	0x3ea16129	0.3151944
183	0xbe91709f	-0.28406236
184	0x3d98286b	0.07429584
185	0x3bc3d05b	0.0059757656
186	0x3e0dfb7d	0.13865466
187	0x3d9e01b5	0.07715169
188	0x3dcd92bc	0.10037753
189	0xbe3895d4	-0.18025905
190	0x3d126e4f	0.03574973
191	0xbe22b7d6	-0.1589044
192	0xbd5ad7e7	-0.053428557
193	0x3defd997	0.11711424
194	0x3de9ad59	0.114100166
195	0x3df176d2	0.11790241
196	0x3da1a2dc	0.07892391
197	0x3e1776b0	0.1479137
198	0x3de7760e	0.11301814
199	0x3cda97cc	0.02668371
200	0x3cffdb31	0.031232448
201	0x3c054cf5	0.008136024
202	0xbd82146e	-0.06351553
203	0x3bd78dbc	0.0065781754
204	0x3d331b44	0.043727174
205	0xbe5be8e7	-0.21475564
206	0xbab769ed	-0.001399336
207	0xbe4b2564	-0.19838482
208	0x3cfd6e0c	0.030936264
209	0x3d1c0808	0.038093597
210	0x3db2f8df	0.08738875
211	0xbd220119	-0.039551828
212	0x3dc3d1dc	0.09561512
213	0x3e410ecb	0.188533
214	0x3d3691ff	0.044572826
215	0xbe7580c8	-0.23974907
216	0xbddbdb45	-0.10735182
217	0xbdcdc701	-0.100477226
218	0xbe969f68	-0.29418492
219	0xbd257793	-0.040397238
220	0x3c8808a5	0.016605685
221	0x3d2fb1b4	0.04289408
222	0xbdf37d56	-0.1188914
223	0xbd03316b	-0.03202955
224	0xbe887932	-0.26654965
225	0x3e53bdbb	0.20677845
226	0x3d07aacd	0.033121873
227	0xbdbde9b9	-0.09273095
228	0x3c7bcd37	0.015368751
229	0xbd7ad16c	-0.061234877
230	0xbe0a4010	-0.13501
231	0x3d28d209	0.04121593
232	0x3dc90832	0.09816016
233	0x3e4de007	0.20104991
234	0x3d923e44	0.071407825
235	0xbdd2389a	-0.10264702
236	0xbdca1cb5	-0.09868757
237	0x3c2582ce	0.010101987
238	0x3dd2a70a	0.102857664
239	0xbe115bc0	-0.14195156
240	0x3d6257da	0.055259563
241	0xbdec013b	-0.11523672
242	0x3e7137ca	0.23556438
243	0x3c69e0b7	0.014274768
244	0x3ca0fa47	0.019650592
245	0xbda3ac6e	-0.07991873
246	0x3d99a23f	0.07501649
247	0xbbe26b24	-0.006909745
248	0xbcbda416	-0.023149531
249	0x3e90858e	0.28226894
250	0x3dbe165b	0.09281608
251	0x3f09547a	0.53644526
252	0xbc203d26	-0.009780204
253	0xbde7a827	-0.113113694
254	0x3e0a1bca	0.13487163
255	0xba123f2c	-0.00055788714

enc_lstm.bias_ih_l0 f4 [144]
0	0x3e2e1a98	0.17002332
1	0xbfad57b2	-1.3542387
2	0x3e67a4f9	0.22621526
3	0xbf23f5a2	-0.6404668
4	0x3f9bb4a5	1.2164503
5	0xbf8352f3	-1.0259689
6	0x3f9be36e	1.2178781
7	0x3dccb719	0.099958606
8	0x3e41c3ac	0.18922299
9	0xbfc17ab6	-1.5115573
10	0x3e30735d	0.17231508
11	0x3fdab9c1	1.7087938
12	0x3ef67104	0.481331
13	0x3e9190fd	0.2843093
14	0xbee0ad58	-0.4388225
15	0xbe942c87	-0.28940222
16	0xbfd0f98e	-1.6326158
17	0xbf743cee	-0.9540547
18	0x3f220b22	0.6329824
19	0xbf058f69	-0.5217195
20	0xbf9a7bb2	-1.2068999
21	0xbfd81fce	-1.6884706
22	0x3f1f43ef	0.62213033
23	0x4014c4d8	2.3245144
24	0x3f8c33f7	1.0953358
25	0xbf1af418	-0.6052871
26	0xbe4afd25	-0.1982313
27	0x3f34a090	0.705575
28	0xbea5a83e	-0.3235492
29	0x3e086c56	0.13322577
30	0x401c545b	2.4426486
31	0x3cb1c3c4	0.021699794
32	0x3f372962	0.7154752
33	0xbf2ffaa2	-0.6874181
34	0x3cb11ec4	0.021621116
35	0xbf9c43ad	-1.2208153
36	0x3d0e2f10	0.03471285
37	0x3e0f8bfa	0.1401824
38	0x3fef4797	1.8693722
39	0xbe47e13f	-0.19519518
40	0x3f2f7e2b	0.6855189
41	0x3eff5b90	0.49874544
42	0xbf7d7a1e	-0.9901446
43	0x3fcffb8a	1.6248639
44	0x3e38c8ce	0.18045351
45	0x3f967929	1.1755725
46	0xbf85721f	-1.0425452
47	0xbffce3ef	-1.975706
48	0xbf336d7a	-0.7008892
49	0x3e809685	0.25114837
50	0xbe7a7be8	-0.24461329
51	0xbf3120a2	-0.6919042
52	0xbfc0902b	-1.5043997
53	0x3ed9f262	0.42567736
54	0x4078a457	3.8850305
55	0x3e82a518	0.25516582
56	0xbfaf9428	-1.3717089
57	0xbeafa594	-0.34306014
58	0x3f840eea	1.0317051
59	0x3ee0dcca	0.4391845
60	0xbff462b6	-1.9092624
61	0x3f8d363d	1.1032177
62	0xbe40b2e6	-0.18818244
63	0x40332cbd	2.7996056
64	0x3f617448	0.88068056
65	0x3eb8795d	0.36030093
66	0x3ddbd921	0.107347734
67	0xbf636988	-0.888329
68	0x3e4e87e7	0.2016903
69	0x3f05dfdd	0.52294713
70	0xbda5eb74	-0.0810155
71	0x3e079953	0.13242082
72	0xbe861eb7	-0.2619531
73	0xbc0e52c1	-0.008686722
74	0x3ffa7dc8	1.9569635
75	0xbc9418b5	-0.018078187
76	0x3ea2edcb	0.31822047
77	0x3e987e79	0.2978399
78	0x3fb7dd7e	1.4364469
79	0x3f8d3218	1.1030912
80	0xbea67cd1	-0.32517102
81	0xbfd63d3a	-1.6737435
82	0x3edeba67	0.4350159
83	0x3f8b5baf	1.0887355
84	0xbf2f0433	-0.6836578
85	0x3f8b36c7	1.0876092
86	0x3e777be1	0.2416835
87	0xbd38e50d	-0.045140315
88	0x3eb93a21	0.3617716
89	0x3e409df9	0.18810262
90	0x3ef87315	0.485253
91	0xbf751b8f	-0.95745176
92	0xc0102cec	-2.2527418
93	0x3e8c4861	0.2739897
94	0xbfb583b8	-1.4180822
95	0x3e285fe8	0.16442835
96	0x3e757715	0.23971207
97	0xbec7d0ae	-0.39026397
98	0xbf1a7a6b	-0.60343045
99	0x3e493503	0.19649129
100	0x3f390835	0.7227815
101	0xbfac018e	-1.3437974
102	0xbfaafba2	-1.3358042
103	0x3e87bc02	0.26510626
104	0xbecdc01a	-0.40185624
105	0x3f82a35a	1.0206101
106	0xbedda34a	-0.43288642
107	0x3fbf5499	1.4947692
108	0x3e3f2c7e	0.18669316
109	0x3f83ee66	1.0307128
110	0x3ded3902	0.11583139
111	0xbe71e2df	-0.236217
112	0x3f0675a9	0.52523285
113	0x3f5591f4	0.8342583
114	0x3e8086c5	0.2510282
115	0xbf00f563	-0.5037443
116	0x3f9ab046	1.2085044
117	0xbec47b20	-0.38375187
118	0x3ecca9ab	0.39973196
119	0x3ef1ead6	0.47249478
120	0xbfc97a84	-1.5740514
121	0x3fd1067f	1.6330107
122	0xbf6cdbd1	-0.92522913
123	0xbf0b570a	-0.54429686
124	0xbebfb238	-0.37440658
125	0x3fc0a0d7	1.5049084
126	0xbeb2cc53	-0.34921512
127	0xbf0f3fc0	-0.5595665
128	0x3f0f794f	0.5604448
129	0x3f333bbd	0.7001303
130	0xbfb1520a	-1.3853161
131	0x3fb2a107	1.3955392
132	0x3f53e6c6	0.8277401
133	0xbf1c9ec3	-0.6117975
134	0xbf1bef44	-0.60911965
135	0xbefab23b	-0.48964104
136	0xbfc8b162	-1.5679133
137	0xbf64a1ca	-0.8930937
138	0xbf4ce936	-0.8004335
139	0x3d107622	0.03526891
140	0xc0040b32	-2.0631833
141	0x3fd95c21	1.698124
142	0xbf818205	-1.0117804
143	0x3eef6b8d	0.46761742

enc_lstm.bias_hh_l0 f4 [144]
0	0xbe826864	-0.2547027
1	0xbeb93d5e	-0.36179632
2	0x3fc1b501	1.5133363
3	0xbf326a1e	-0.6969317
4	0xbf3f8e4c	-0.748265
5	0xbf7fca71	-0.99918276
6	0x3fc2099b	1.5159181
7	0x3f347658	0.7049308
8	0xc00ce47c	-2.2014456
9	0xbebbf7c1	-0.3671246
10	0xbf1269dc	-0.5719278
11	0x3d786c9f	0.060650464
12	0xbf4e8e16	-0.80685556
13	0x3f7fed9c	0.9997194
14	0xbf029b38	-0.51018095
15	0xbe7a771b	-0.24459498
16	0xbf1710d8	-0.59010077
17	0x3e6537c4	0.22384554
18	0x3f8894f2	1.0670455
19	0xbf3da6b2	-0.7408248
20	0xbfbf2ecb	-1.4936155
21	0x40126fd3	2.2880752
22	0x3ec53d57	0.3852336
23	0xbf037ed2	-0.5136539
24	0xbf59fb7e	-0.8514937
25	0x3f195a07	0.59902996
26	0xbea76667	-0.32695314
27	0x3f1864e1	0.5952893
28	0xbc0a94eb	-0.008458356
29	0x3e0d7b88	0.13816655
30	0xbf9e44d2	-1.2364752
31	0x3f5e9cf7	0.8695826
32	0x3f006956	0.5016073
33	0x4016c773	2.3559234
34	0xbf2d8256	-0.67777
35	0xbf2e3cfb	-0.680618
36	0x3f419101	0.75611883
37	0x3f7042e4	0.93852067
38	0xbda4eef1	-0.08053387
39	0xbe7824fa	-0.24232855
40	0x3967544b	0.00022061278
41	0x3eafa580	0.34305954
42	0x3f87b02d	1.060064
43	0x3ed20351	0.41018155
44	0x3f958911	1.1682454
45	0x3f0af4b0	0.54279613
46	0xbf2d8947	-0.67787594
47	0xbd8248c8	-0.06361538
48	0x3fb030ec	1.376493
49	0xbf3bb222	-0.73318684
50	0x3e812570	0.25223875
51	0xbcf2979f	-0.029613314
52	0xbf0be8c2	-0.54652035
53	0x3ea74942	0.3267308
54	0x3f1a263d	0.60214597
55	0xbf82cd95	-1.0218989
56	0xbe03ae69	-0.12859501
57	0xbffe4893	-1.9865898
58	0xbfac51f5	-1.3462511
59	0x3f0e8dc3	0.5568506
60	0x3f5c7e35	0.86130077
61	0x3e934a0f	0.2876744
62	0x3fbb96b1	1.4655362
63	0x3f991a85	1.1961218
64	0xbf00c352	-0.50298035
65	0x4017171a	2.360785
66	0xbf4fcc77	-0.81171364
67	0xbf32707c	-0.6970289
68	0xbff6ba72	-1.9275649
69	0xbbbc284a	-0.0057421075
70	0x3f15d0af	0.5852155
71	0x3fcd414d	1.6035553
72	0xbf68da72	-0.9095832
73	0x3f2a34d4	0.6648686
74	0x3f1e3d94	0.6181271
75	0x3fb08b8a	1.3792584
76	0xbf83415a	-1.0254319
77	0xbe5905d5	-0.21193631
78	0xbf5a5f9c	-0.8530214
79	0x3da9243a	0.08258863
80	0xbefa5018	-0.48889232
81	0x3f85bb56	1.0447795
82	0x3f01a33a	0.5063969
83	0x3f975341	1.1822282
84	0xbe109306	-0.14118585
85	0x3ebfed9e	0.37485975
86	0x3f30cb07	0.69059795
87	0x3f13b283	0.5769426
88	0x3f6fd24f	0.9368028
89	0x3f2484b9	0.6426502
90	0x3f97ade8	1.1849947
91	0x3e2597a5	0.16171129
92	0x3f010390	0.5039606
93	0xbf9675e5	-1.1754729
94	0xbeb1008f	-0.3457074
95	0x3f40fc8d	0.7538536
96	0xbee44b46	-0.4458868
97	0x3f99780e	1.1989763
98	0x3e06bab5	0.1315716
99	0x3eba52b0	0.3639121
100	0xbe46a25c	-0.19397873
101	0x3ffd790e	1.9802568
102	0x3f9e988c	1.2390304
103	0x3fa41818	1.2819853
104	0xbf5a9dc5	-0.8539699
105	0x3f341d91	0.70357615
106	0x3e44e0b2	0.1922634
107	0x3e9d8989	0.30768993
108	0x3e243694	0.16036445
109	0x3e9c057f	0.30472943
110	0xbf2d178b	-0.6761405
111	0xbdc7aa4b	-0.09749278
112	0xbf1489e2	-0.5802289
113	0x3f89307b	1.071792
114	0x3e7dbee8	0.24779856
115	0xbf003717	-0.5008406
116	0x3f63f3f0	0.89044094
117	0xbe7cc5b3	-0.24684791
118	0x3de4abc0	0.11165571
119	0xc010fc54	-2.265401
120	0xbd06602d	-0.032806564
121	0xbd954c32	-0.07289924
122	0x3df25977	0.1183347
123	0x3eb5a277	0.35475513
124	0x3f96cbe9	1.1780978
125	0x3ea31b3f	0.31856725
126	0x3fd63202	1.6734011
127	0x3f6cbba8	0.9247384
128	0x3f84f9ad	1.0388695
129	0xbf01267b	-0.5044934
130	0xbd10c96d	-0.035348345
131	0xbf87e359	-1.0616256
132	0xbede340c	-0.43399084
133	0xbf536f54	-0.8259175
134	0xbfb4b7a6	-1.4118545
135	0x3f9d1394	1.22716
136	0xbf977b63	-1.183453
137	0x3f246919	0.64222866
138	0x3f5e2acd	0.8678406
139	0xbeadd996	-0.33955067
140	0xbf145174	-0.5793679
141	0xbf292b94	-0.6608212
142	0xbff0bcd0	-1.8807621
143	0xbe058583	-0.13039212

enc_lstm.weight_ih_l1 f4 [144, 48]
0	0xbd650f5d	-0.055922855
1	0x3daf3c3d	0.085564114
2	0xbea7c6b3	-0.32768783
3	0x3b3b611b	0.0028591815
4	0x3efd134a	0.4942878
5	0xbe418b09	-0.18900694
6	0xbd4760ba	-0.04867623
7	0x3df473a7	0.119361214
8	0xbe730744	-0.2373324
9	0x3e1f36f7	0.15548311
10	0xbe58ba03	-0.21164708
11	0xbe8d7437	-0.27627727
12	0x3e15353a	0.14571086
13	0xbe117e3d	-0.14208312
14	0xbdcd9ace	-0.10039292
15	0xbea2d28c	-0.3180126
16	0x3e0f64f6	0.14003357
17	0x3e14592a	0.14487138
18	0x3e189bb1	0.14903142
19	0xbeb331bd	-0.34998885
20	0x3e084a49	0.13309588
21	0x3db85a81	0.09001637
22	0x3df6f215	0.12057892
23	0xbe9a8e03	-0.3018647
24	0x3d966961	0.07344318
25	0xbe24c464	-0.16090542
26	0xbd5a1e97	-0.05325183
27	0x3e673757	0.22579704
28	0x3dc354c0	0.09537649
29	0x3c9ac58a	0.018893022
30	0xbf08e437	-0.5347323
31	0x3e045ccd	0.12926026
32	0x3e2543cf	0.16139148
33	0x3e3caafe	0.18424603
34	0x3ddb2f44	0.107023746
35	0xbd45e5a6	-0.048314713
36	0xbe55eb8c	-0.20890635
37	0xbe6973bd	-0.22798057
38	0x3e5eab60	0.21745062
39	0x3ccb0fe4	0.02478785
40	0xbcf94ed9	-0.030433105
41	0xbe337e76	-0.1752871
42	0xbe5d8696	-0.21633372
43	0xbe857194	-0.26063216
44	0xbe86de00	-0.26341248
45	0x3e505033	0.20343094
46	0xbdad3e10	-0.08459103
47	0x3d9968e9	0.07490713
48	0xbe82ec50	-0.25570917
49	0x3e331852	0.17489746
50	0x3e96c55a	0.29447442
51	0xbd709741	-0.058737997
52	0xbeb61fee	-0.35571235
53	0x3cbdee71	0.023184987
54	0xbd2bea53	-0.041971516
55	0xbe950c6b	-0.29111037
56	0xbd88bad0	-0.06676257
57	0xbe3adf66	-0.18249282
58	0x3dd9f315	0.10642067
59	0x3e5555dd	0.20833535
60	0xbf1f75bf	-0.6228904
61	0xbe97b9fe	-0.29634088
62	0x3e1627af	0.14663576
63	0x3d0ab899	0.033867452
64	0x3dc2ed49	0.09517915
65	0xbea96a26	-0.33088797
66	0x3e77ba0e	0.24192068
67	0x3dfab9cb	0.122424684
68	0xbcb98fcd	-0.022651577
69	0x3e739e79	0.23790921
70	0x3e68dc5f	0.22740315
71	0x3df74a53	0.12074723
72	0xbd344df9	-0.044019673
73	0xbf189ea3	-0.5961706
74	0xbe406601	-0.18788911
75	0x3ddd470d	0.108045675
76	0x3dad6b23	0.084677
77	0xbe86ad46	-0.26304072
78	0xbecf6859	-0.40509298
79	0x3e3db548	0.18526185
80	0x3e45a09b	0.19299547
81	0xbce9b2cf	-0.028527645
82	0xbdefa29d	-0.11700938
83	0xbd44df13	-0.048064303
84	0xbe8df60a	-0.27726775
85	0xbbf259da	-0.007395965
86	0x3c2c5ecc	0.010520648
87	0x3d935760	0.071944
88	0xbd6a6a69	-0.057230387
89	0xbdeb5c7d	-0.1149225
90	0x3ea74d96	0.3267638
91	0xbe88d4b2	-0.26724774
92	0xbd00b456	-0.03142198
93	0xbda6562a	-0.08121903
94	0x3d4330ec	0.047654077
95	0x3c5efa37	0.013609461
96	0xbe67a684	-0.22622114
97	0x3d29e04e	0.04147368
98	0xbdd2dac5	-0.10295633
99	0x3ec0d7e0	0.376647
100	0xbe12542b	-0.1428992
101	0xbe0dfe4e	-0.13866541
102	0xbcd41def	-0.02589318
103	0x3d1cdbe5	0.038295645
104	0xbe64f31f	-0.22358368
105	0xbe03da04	-0.12876135
106	0x3e8800c9	0.265631
107	0xbd3371ae	-0.043809585
108	0xbd57c46c	-0.052677557
109	0xbb97afc8	-0.004629109
110	0x3e115fe6	0.14196739
111	0x3e07d245	0.13263805
112	0x3e34d2d4	0.1765855
113	0xbd93fad5	-0.07225577
114	0xbdfce7e4	-0.12348917
115	0xbd8546c8	-0.06507641
116	0x3daef913	0.08543601
117	0x3dddba27	0.10826521
118	0x3d8249e3	0.06361749
119	0x3ea9d34d	0.33169022
120	0xbd2e4482	-0.042545803
121	0xbe026782	-0.12734798
122	0xbd020eb7	-0.031752314
123	0x3e60dd64	0.21959454
124	0xbe788018	-0.24267614
125	0xbc5ed4bb	-0.013600524
126	0xbd509cf0	-0.050930917
127	0x3ef6b447	0.48184416
128	0x3e0c9bf3	0.13731365
129	0xbeb70871	-0.35748628
130	0xbddab1da	-0.10678454
131	0xbc18948c	-0.00931276
132	0xbe6fa788	-0.23403752
133	0x3d545c06	0.051845573
134	0xbda370a0	-0.07980466
135	0x3e38c561	0.18044044
136	0x3daa951a	0.0832922
137	0xbe08d9aa	-0.13364282
138	0x3bda2768	0.0066575296
139	0xbe20dca1	-0.15709163
140	0x3db818b2	0.08989085
141	0xbd674100	-0.056458473
142	0x3a19c78c	0.00058662216
143	0x3c1f4f07	0.009723431
144	0xbd83de3e	-0.06438874
145	0x3d87e57f	0.0663557
146	0xbda9fc08	-0.08300024
147	0x3dc8b2f0	0.097997546
148	0xbe2673e5	-0.16255148
149	0xbd30208a	-0.04299978
150	0x3e4cda16	0.20005068
151	0xbd46f3a5	-0.0485722
152	0xbdc24bd5	-0.0948712
153	0x3e62346d	0.22090311
154	0xbda32fd3	-0.07968106
155	0x3cb9a821	0.022663178
156	0xbf24ccc1	-0.6437493
157	0x3de317d9	0.11088533
158	0xbdd849b3	-0.10560932
159	0x3e810e12	0.25206047
160	0x3d63259a	0.05545578
161	0xbeb1a668	-0.3469727
162	0xbbbb7544	-0.0057207663
163	0x3dab0769	0.08351023
164	0x3e015658	0.12630594
165	0x3ebacd79	0.36484888
166	0x3dc814e0	0.097696066
167	0xbdc0f3c7	-0.09421497
168	0xbeb8c983	-0.3609124
169	0xbe4e5858	-0.20150888
170	0x3e05a927	0.13052808
171	0xbd8ab787	-0.06773286
172	0x3d61b7df	0.055106994
173	0x3eba3f44	0.36376393
174	0xbae5ad90	-0.0017523039
175	0x3e3249bd	0.17410941
176	0xbd98b02a	-0.07455476
177	0xbe1f5727	-0.1556059
178	0xbdfad462	-0.1224754
179	0x3b40afac	0.0029401584
180	0x3d261202	0.040544517
181	0x3c97ba88	0.018521562
182	0xbd4eebf7	-0.050518002
183	0x3e345dfe	0.1761398
184	0xbe8c6209	-0.27418545
185	0x3dcbdaa0	0.09953809
186	0x3d48fae3	0.04906739
187	0x3e09225c	0.13392013
188	0xbdc9db5e	-0.09856294
189	0x3d67fe58	0.056639045
190	0xbdbec03c	-0.093140095
191	0xbdae33fa	-0.085060075
192	0xbe2be6ef	-0.16787313
193	0xbd70bf18	-0.05877599
194	0xbe90ca55	-0.28279367
195	0xbe5527fa	-0.20816031
196	0x3f111f15	0.5668805
197	0xbd87c082	-0.06628515
198	0xbdf30e10	-0.118679166
199	0x3e2109b3	0.15726356
200	0xbe2c6717	-0.168362
201	0x3ebb042a	0.36526614
202	0x3dd6854b	0.10474642
203	0x3d8bf204	0.0683327
204	0x3e907a32	0.28218228
205	0x3df2eca2	0.118615404
206	0x3c4770bc	0.012172874
207	0xbe51fe30	-0.20507121
208	0xbe0cad88	-0.13738072
209	0x3e6106a5	0.21975191
210	0x3dca6156	0.098818466
211	0x3d44fe89	0.048094306
212	0x3ded702a	0.11593659
213	0xbd908246	-0.07056098
214	0x3e44a736	0.19204411
215	0xbdcbc379	-0.09949393
216	0xbe132c42	-0.14372352
217	0x3dca40e6	0.0987566
218	0xbe8f4d55	-0.27988687
219	0x3d3ad5a1	0.04561389
220	0x3ca944e9	0.020662742
221	0x3ca0870e	0.01959565
222	0x3e15a2b4	0.14612848
223	0x3d50e333	0.050997924
224	0xbd92b654	-0.071636826
225	0xbd3fbd09	-0.046811137
226	0xbeb35477	-0.3502538
227	0x3ea8bb22	0.3295527
228	0x3da729fa	0.08162303
229	0x3d198823	0.037483346
230	0x3c9c818c	0.019104742
231	0x3e1fa011	0.15588404
232	0xbc441162	-0.011967035
233	0xbcd1b9df	-0.025601326
234	0xbe4449b9	-0.19168748
235	0xbd490cb1	-0.04908437
236	0x3cb6d1c6	0.022316825
237	0x3cd008a1	0.02539474
238	0xbe3d13d9	-0.18464603
239	0x3d73dce8	0.059536844
240	0x3c57802a	0.013153115
241	0xbd887129	-0.066622086
242	0xbea3a6b3	-0.3196312
243	0x3e8216b8	0.25407958
244	0x3eb23a15	0.34809938
245	0x3e1c1607	0.15242778
246	0x3e5e6399	0.21717681
247	0x3e5e8ba0	0.2173295
248	0xbe15cdd8	-0.14629304
249	0x3eb14756	0.34624738
250	0xbe071195	-0.13190301
251	0xbd47c368	-0.04877034
252	0x3e139ecc	0.14416045
253	0x3e01382c	0.12619084
254	0x3f0efab9	0.5585132
255	0xbe6762d0	-0.22596288

enc_lstm.weight_hh_l1 f4 [144, 48]
0	0x3d0a45b8	0.033757895
1	0xbe1049a9	-0.14090599
2	0x3e83ddf6	0.2575528
3	0x3e8210dd	0.2540349
4	0x3e7d2bca	0.24723735
5	0xbea9b43a	-0.33145314
6	0x3d9f9eb4	0.07793942
7	0xbe362063	-0.17785792
8	0x3ddc0f0b	0.10745057
9	0x3de0bfd9	0.10974092
10	0x3ecfa20d	0.40553322
11	0xbdf4c191	-0.11950982
12	0xbd656b8d	-0.05601077
13	0x3e85be90	0.2612195
14	0xbe19d0ed	-0.15021105
15	0xbe283665	-0.16427
16	0xbe7f18b7	-0.24911772
17	0xbe58e50a	-0.21181121
18	0xbcb13633	-0.02163229
19	0xbeb1d1ea	-0.34730464
20	0xbec07b0a	-0.3759387
21	0x3eda4067	0.4262726
22	0x3eb45d21	0.35227302
23	0xbe382318	-0.17982137
24	0x3d1fb401	0.038990024
25	0x3e789160	0.24274206
26	0xbec952fe	-0.3932113
27	0xbd5856be	-0.0528171
28	0x3dc13202	0.09433366
29	0x3c84bb8c	0.01620271
30	0xbddc862f	-0.10767781
31	0xbe7577cc	-0.2397148
32	0xbdce3d33	-0.100702666
33	0xbc563b09	-0.0130755985
34	0xbdeefaaf	-0.11668908
35	0x3badfd99	0.005309772
36	0xbeb67546	-0.35636348
37	0xbb0dc284	-0.0021630833
38	0x3de24a5d	0.1104934
39	0x3da317eb	0.07963546
40	0x3dd54932	0.104143515
41	0xbd4b1871	-0.049583856
42	0x3e315fec	0.17321748
43	0xbc8f3811	-0.01748279
44	0xbf03b997	-0.5145506
45	0xbdc18015	-0.09448258
46	0x3d579c8e	0.052639537
47	0xbe80eb41	-0.25179484
48	0xbe494692	-0.19655827
49	0xbce48493	-0.027895248
50	0x3ec9f6cb	0.394461
51	0x3d9cace3	0.07650163
52	0x3e252726	0.16128215
53	0x3ece2663	0.40263662
54	0xbd7487f6	-0.059699975
55	0xbdfa3fbc	-0.122191876
56	0xbea95a79	-0.33076838
57	0x3e16528d	0.14679928
58	0x3dd5e5ec	0.10444245
59	0x3c1dab38	0.009623341
60	0x3ec73e57	0.3891475
61	0xbe8ada23	-0.2711955
62	0x3e25f24f	0.16205715
63	0xbda15b05	-0.07878689
64	0xbe8642b7	-0.26222774
65	0x3daea561	0.08527637
66	0x3d823b6c	0.0635899
67	0xbe8840cc	-0.26611936
68	0xbe8cb718	-0.2748344
69	0x3e20ee6e	0.15715954
70	0x3dbf999a	0.09355469
71	0xbe2df689	-0.16988577
72	0x3ddb4f8e	0.10708533
73	0xbd5a25a8	-0.053258568
74	0x3b1c931c	0.0023891395
75	0xbdd95fef	-0.10614001
76	0x3c8a1e86	0.016860258
77	0x3d52bc51	0.051449124
78	0xbdd568d1	-0.10420383
79	0xbdee70bb	-0.116425954
80	0x3ce80731	0.028323742
81	0x3cc04400	0.023469925
82	0x3c575eb3	0.013145137
83	0x3df8a743	0.12141278
84	0xbdf86b18	-0.121298015
85	0xbdff97f7	-0.12480157
86	0x3e4c82bf	0.1997175
87	0xbd5e8c36	-0.054332934
88	0x3e9a7e18	0.30174327
89	0x3dbb2367	0.09137612
90	0xbd24743f	-0.040149923
91	0x3d44db08	0.048060447
92	0x3e60ce20	0.2195363
93	0xbe1af5cb	-0.15132825
94	0x3e111dfd	0.14171596
95	0xbec906f1	-0.39263108
96	0x3c8be84e	0.017078545
97	0xbe52bef9	-0.20580663
98	0xbbe55b46	-0.006999406
99	0xbd64dd6c	-0.055875227
100	0xbd26ed8c	-0.040753886
101	0x3e8902dd	0.26759997
102	0x3ea4c8aa	0.32184345
103	0xbd6ec9a9	-0.058297787
104	0x3e269b01	0.16270067
105	0xbe153c2f	-0.1457374
106	0xbe3953a9	-0.1809832
107	0x3e28e196	0.16492304
108	0x3d9c5685	0.0763369
109	0x3e059ea1	0.13048793
110	0xbeb2282e	-0.3479628
111	0x3e5b306a	0.21405187
112	0xbae32073	-0.0017328396
113	0x3db7284d	0.08943234
114	0xbc081c16	-0.008307477
115	0xbd00f2ba	-0.031481482
116	0x3d80a42b	0.062813126
117	0xbcbcf455	-0.023065725
118	0xbdfe132e	-0.12406002
119	0x3d61b6ce	0.055105977
120	0x3d8b7ad1	0.06810535
121	0xb739415e	-1.1042079e-05
122	0xbd0a4d0d	-0.033764888
123	0xbd51b250	-0.051195443
124	0xbda8968e	-0.08231841
125	0xbd0c50f5	-0.034256894
126	0xbe2874e9	-0.16450848
127	0x3d426c5d	0.047466625
128	0xbe28f587	-0.16499911
129	0xbd66ba07	-0.056329753
130	0x3e9bb30d	0.30410042
131	0x3e4a70ec	0.19769639
132	0x3e101390	0.14069963
133	0xbd106e22	-0.03526128
134	0xbf1078d0	-0.56434345
135	0xbd485141	-0.048905615
136	0x3b4341ce	0.0029793861
137	0x3ddf670e	0.10908328
138	0xbe8e69fe	-0.2781524
139	0xbe006560	-0.12538671
140	0xbe86cfdb	-0.26330456
141	0x3c80fa55	0.015744368
142	0x3d942149	0.07232911
143	0x3d9beb67	0.07613259
144	0xbda7b5a9	-0.08188946
145	0x3c4b4765	0.0124071585
146	0xbdbe535e	-0.09293245
147	0x3926d57e	0.00015910526
148	0xbe2ca868	-0.16861117
149	0x3f0bbdde	0.5458659
150	0x3e8a59fb	0.27021775
151	0x3dea115e	0.11429094
152	0x3da64c98	0.08120078
153	0x3e2a7cfb	0.16649239
154	0x3ed6268b	0.4182628
155	0x3e3d9500	0.1851387
156	0xbc543c9b	-0.012953903
157	0xbddfe74f	-0.109327905
158	0x3e213f13	0.15746717
159	0xbe195fa4	-0.1497789
160	0xbe859520	-0.26090336
161	0xbe2db87f	-0.16964911
162	0xbd042a72	-0.03226704
163	0x3e10e215	0.14148743
164	0xbdb4b058	-0.088226974
165	0x3e19432b	0.14967029
166	0xbe238374	-0.15968114
167	0xbd8d57ac	-0.06901488
168	0x3d328d84	0.04359199
169	0xbe8014e5	-0.2501594
170	0xbd6be977	-0.057595696
171	0x3d8e5bda	0.06951113
172	0x3d280a19	0.041025255
173	0xbdc14555	-0.09437052
174	0x3c6daea5	0.0145069705
175	0x3f074695	0.52842075
176	0xbd791677	-0.06081244
177	0x3c972810	0.01845172
178	0xbc4f470d	-0.012651217
179	0x3f0e1e1f	0.5551471
180	0x3e019921	0.1265607
181	0xbeac86f4	-0.3369671
182	0xbd5b4d51	-0.05354053
183	0x3db9498c	0.09047231
184	0x3c8b899e	0.017033394
185	0x3d8fa0e7	0.070131116
186	0xbe1a4b6b	-0.15067832
187	0xbe4e5c59	-0.20152415
188	0xbdfe7ce9	-0.124261685
189	0xbd051dd5	-0.032499153
190	0x3ee6a31d	0.4504632
191	0xbe014587	-0.12624179
192	0xbe38e386	-0.18055543
193	0x3d326d68	0.04356137
194	0x3edb53e5	0.42837444
195	0x3c1db707	0.009626157
196	0x3c6a484a	0.014299462
197	0x3e0b5b0b	0.13608949
198	0xbda0919a	-0.07840271
199	0xbe1bed37	-0.15227209
200	0x3da98157	0.08276623
201	0xbc21e1a0	-0.009880453
202	0xbd708655	-0.05872186
203	0xbe3b20c7	-0.18274222
204	0x3e140d6e	0.14458248
205	0xbe762718	-0.2403835
206	0x3c84bfc8	0.01620473
207	0x3dbbc52a	0.091684654
208	0x3d9f10fc	0.077669114
209	0xbd9220cb	-0.07135161
210	0x3e5878e8	0.21139872
211	0xbd49b24e	-0.04924231
212	0xbdb34430	-0.0875324
213	0x3d59351b	0.05302916
214	0x3e280d06	0.16411218
215	0x3cde4984	0.027134664
216	0x3e16e02f	0.14733957
217	0x3e119f21	0.14220859
218	0xbe440d23	-0.19145636
219	0x3e0b6748	0.13613617
220	0x3e60c840	0.2195139
221	0x3e4325b5	0.19057353
222	0x3d7fac0e	0.062419944
223	0x3db6417b	0.08899208
224	0x3d8f9dfa	0.070125535
225	0xbe7b56d6	-0.24544844
226	0x3e1a07a0	0.15041971
227	0xbe76624c	-0.24060935
228	0xbf119a24	-0.56875825
229	0xbe3aebdc	-0.18254036
230	0xbd5b9272	-0.053606458
231	0xbeb92530	-0.36161184
232	0x3c7bdf14	0.01537301
233	0xbd951c8b	-0.07280835
234	0x3dee7844	0.116440326
235	0x3e05bdbf	0.13060664
236	0x3dfb1829	0.122604676
237	0x3ca76ac2	0.020436648
238	0xbdf75192	-0.12076105
239	0x3e18e709	0.14931883
240	0xbe38fd7f	-0.18065451
241	0x3c7fd088	0.015613683
242	0xbe85a267	-0.26100466
243	0xbf30c1da	-0.69045794
244	0xbe584828	-0.21121275
245	0x3ddae9f2	0.10689153
246	0x3f4b95c1	0.7952538
247	0xbd1fb321	-0.03898919
248	0xbe0ac4df	-0.13551663
249	0xbf0d12a0	-0.55106544
250	0xbeb959ae	-0.36201233
251	0xbd55d979	-0.05220935
252	0x3eb6be63	0.3569213
253	0x3e9b31a0	0.30311298
254	0xbebd2cb7	-0.36948177
255	0xbd25c4bd	-0.040470827

enc_lstm.bias_ih_l1 f4 [144]
0	0xbeab50db	-0.33460125
1	0xbf6988a5	-0.9122413
2	0x3ebb8509	0.36624935
3	0x3f0c4be3	0.54803294
4	0x3fab6dc3	1.3392872
5	0xbe7914fc	-0.24324411
6	0x3fdc51c9	1.7212459
7	0x3f1b71e5	0.60720664
8	0xbf0686dd	-0.52549535
9	0x3f28ea78	0.6598277
10	0x4031c357	2.7775476
11	0xbfc43529	-1.5328723
12	0xbeac16b2	-0.33611065
13	0x3fc1c8e3	1.5139431
14	0x3e4b754a	0.19868961
15	0xbf31df24	-0.6948111
16	0xbebbd131	-0.36683038
17	0xbf71a02f	-0.94385046
18	0x3f54dd10	0.83149815
19	0x3da592bc	0.08084628
20	0xbe732183	-0.23743252
21	0x3f3b9023	0.7326681
22	0x3f5c2fa3	0.8601019
23	0x3e5bddd2	0.21471336
24	0x3ff14aa6	1.8850906
25	0xbc8f9bf4	-0.017530419
26	0x3fb502ec	1.4141517
27	0x3f3e76c1	0.74399954
28	0xbfacf0e6	-1.3511016
29	0xbd99467f	-0.07484149
30	0xbeaa0ea0	-0.33214283
31	0xbed073cc	-0.40713346
32	0xbd75cc7e	-0.060009472
33	0x3fc4922d	1.5357109
34	0xbffafff9	-1.9609367
35	0x3f94f3a5	1.1636854
36	0xbfccdee5	-1.6005522
37	0x3f2d3838	0.6766391
38	0xbf8b022f	-1.0860041
39	0x3fe8c521	1.8185159
40	0x3e7aa639	0.24477471
41	0xbe4c46ef	-0.19948934
42	0xbfa59f1d	-1.2939183
43	0xbfaf4d6f	-1.3695506
44	0xbf150d67	-0.58223575
45	0x358f672e	1.068436e-06
46	0xbf2f1018	-0.6838393
47	0xbec0098c	-0.37507284
48	0xbf29c366	-0.6631378
49	0x3f950082	1.164078
50	0x3f98c6b0	1.1935635
51	0xbfd20963	-1.6409115
52	0x4001eba2	2.030007
53	0x3f98c490	1.1934986
54	0xbfa8ea7e	-1.3196561
55	0xbf748dd4	-0.9552891
56	0xc002d94a	-2.0445123
57	0xbf4c0981	-0.79702
58	0x3f2d9aec	0.6781452
59	0x3e097d87	0.13426791
60	0x3e741eb8	0.23839843
61	0x3de7d83c	0.1132054
62	0xbf87a487	-1.0597085
63	0xbf05f3c1	-0.52325064
64	0x3f84a51a	1.0362885
65	0xc023272e	-2.5492663
66	0x3ec7aa8a	0.38997298
67	0x3efd77ce	0.49505466
68	0x3d3cdc06	0.04610827
69	0xbf26e6d7	-0.65195984
70	0xbf5e5b74	-0.86858296
71	0x3efa6242	0.4890309
72	0x3ea01563	0.31266317
73	0x3f680f39	0.9064823
74	0x3e48f476	0.19624504
75	0x3df2b1d1	0.11850322
76	0xbf3f19ea	-0.74648917
77	0x3f600882	0.8751298
78	0xbf085e6e	-0.5326909
79	0x3f806055	1.0029398
80	0x3fe90912	1.8205893
81	0xc0119c88	-2.275179
82	0xbf89ef8a	-1.0776227
83	0x3f06e1eb	0.52688473
84	0xbf70ee22	-0.9411336
85	0xbea1c8cf	-0.31598517
86	0x3d62c1f5	0.055360753
87	0x3f9a5cd7	1.2059582
88	0x3f70d967	0.9408173
89	0x3e3705d6	0.1787332
90	0x3f04e496	0.51911294
91	0xbebce1c8	-0.36891007
92	0x3f9122ef	1.1338786
93	0xc021ab31	-2.5260737
94	0xbfa1ab31	-1.2630368
95	0x3d73c625	0.059515137
96	0xbf971036	-1.1801822
97	0xbf0883b5	-0.5332597
98	0xbf0a1a1b	-0.53946084
99	0x3fc23890	1.5173512
100	0xbf450a7f	-0.7696914
101	0xbeb59fd5	-0.35473505
102	0xbf048528	-0.5176568
103	0x3f1e7c12	0.61908066
104	0x3fbb510c	1.4634109
105	0x3f5acec4	0.8547175
106	0x3f112121	0.56691176
107	0x3e366252	0.17810944
108	0xbec75ffd	-0.3894042
109	0xbf9d6e3f	-1.229927
110	0x3f5c8b41	0.86149985
111	0x3f75b946	0.9598583
112	0x3ece2d89	0.40269116
113	0xbf9b1bef	-1.21179
114	0x3fbe3249	1.4859096
115	0x400796ea	2.118586
116	0x3eaf718c	0.34266317
117	0xbed4d59d	-0.41569224
118	0x3f1ee78f	0.6207208
119	0x3f100e4a	0.56271803
120	0x3e3abaaa	0.18235269
121	0x3e96db9a	0.29464418
122	0xc014536f	-2.3175924
123	0xbd17d514	-0.03706844
124	0x3fd63dd7	1.6737622
125	0xbe7cda99	-0.24692763
126	0xbf2c3921	-0.6727467
127	0xbebe33e5	-0.37148967
128	0xbf32e918	-0.6988692
129	0x3f43da97	0.76505417
130	0xbebff4ef	-0.37491557
131	0xbf225aab	-0.634196
132	0xbf7e06f4	-0.9922936
133	0xbfa61478	-1.2974997
134	0x3f29a57d	0.6626814
135	0xbe0afb49	-0.1357242
136	0x3f03863b	0.51376694
137	0xc01bc27b	-2.4337451
138	0x3eb4b3e9	0.3529351
139	0xbf837db9	-1.0272743
140	0xbf0d7c87	-0.5526814
141	0xbf6ce473	-0.92536086
142	0x3cbd5885	0.023113498
143	0x3f40f959	0.75380474

enc_lstm.bias_hh_l1 f4 [144]
0	0xbed8d002	-0.42346197
1	0x3f00e74b	0.50352925
2	0xbee9a04a	-0.45630103
3	0x3fd0984f	1.6296481
4	0xbea6c795	-0.32574144
5	0x3f0cc5e4	0.5498946
6	0x3f888fc4	1.0668874
7	0xbea5b351	-0.3236337
8	0x3f916b00	1.1360779
9	0x3da546be	0.080701336
10	0x4006ce18	2.106329
11	0x3d305dbc	0.043058142
12	0x3fa93c8d	1.3221604
13	0x3fdb40ae	1.7129114
14	0xbf704f82	-0.9387132
15	0xbe98788e	-0.29779476
16	0x3f0b0bfa	0.5431515
17	0x4013692c	2.3032942
18	0x3eebc1e0	0.46046352
19	0xbd0f60e9	-0.03500453
20	0x3ec3169d	0.3810319
21	0xbef686e6	-0.48149794
22	0x3ecd211f	0.40064332
23	0xbf283c7f	-0.6571731
24	0xbebfd80e	-0.37469524
25	0x3f89de72	1.077101
26	0x3ef37651	0.47551206
27	0xbe8a86fb	-0.27056107
28	0xbf03afd6	-0.5144018
29	0xbfaa4d37	-1.3304814
30	0x3d800f5c	0.062529296
31	0xbf472920	-0.77797127
32	0xbebd6f52	-0.36998993
33	0x3eab7952	0.33490998
34	0xbf4d084a	-0.80090773
35	0xbf8bbc9c	-1.0916934
36	0xbf2101aa	-0.62893164
37	0xbf01f219	-0.50760037
38	0xbf3324ed	-0.6997822
39	0xbf680d01	-0.9064484
40	0x3e81cafa	0.2535017
41	0xbf8d7fb1	-1.1054593
42	0x3fbf6c12	1.4954855
43	0xbf3e6c2a	-0.74383795
44	0xbfae9b08	-1.3641062
45	0xbfb8609e	-1.4404485
46	0xbf1053f9	-0.5637813
47	0xbf564dcc	-0.8371246
48	0xbf182df4	-0.5944512
49	0xbe9d18b7	-0.30682918
50	0x3e43ab2e	0.19108269
51	0x3e1adfdc	0.15124458
52	0xbf3b652c	-0.7320125
53	0x3fa14c06	1.2601326
54	0xbf104de6	-0.56368864
55	0x3f00d0d3	0.5031864
56	0x3f62d820	0.8861103
57	0x3e931f6a	0.28734905
58	0x3f0f973e	0.5609015
59	0xbe869821	-0.2628794
60	0xbf7ea5bf	-0.9947166
61	0x3eb51999	0.35371092
62	0x3e539076	0.20660576
63	0xbf338f34	-0.70140386
64	0x3de0b137	0.10971301
65	0xbf523b39	-0.82121617
66	0xbfb9f339	-1.4527351
67	0x3f981563	1.1881527
68	0xbe31a31f	-0.17347382
69	0xbecd0b2f	-0.40047595
70	0x3fa4e157	1.2881268
71	0x3efb01a5	0.49024692
72	0x3edd064d	0.4316887
73	0xbf3c9357	-0.7366232
74	0xc0045555	-2.0677083
75	0x3e6b199f	0.22958992
76	0x3f11edd5	0.5700353
77	0x3f11d7a1	0.5696965
78	0x3fc21ce5	1.5165068
79	0x40263220	2.5968094
80	0xbfc33d87	-1.5253152
81	0x3faa01cf	1.3281802
82	0x3ef42806	0.47686785
83	0x40088d90	2.1336403
84	0xbe5cc353	-0.21558885
85	0x3ea9479b	0.33062443
86	0x3ff80c22	1.9378703
87	0x3e002967	0.12515794
88	0xbf5d3ce5	-0.8642104
89	0xbf697bc2	-0.91204464
90	0x3f80ff94	1.0077996
91	0x3f22a1d3	0.63528174
92	0x3f4b850c	0.7949989
93	0xbf22e166	-0.6362518
94	0xbffacab7	-1.9593114
95	0x3f2715c5	0.6526759
96	0xbf262a41	-0.64908224
97	0xbe19131d	-0.14948697
98	0x3e0203a4	0.12696701
99	0x3f6d98bb	0.92811173
100	0x3ec847e3	0.39117345
101	0xbf7f5849	-0.9974409
102	0x3f9e0e39	1.234809
103	0xbf1c3d7a	-0.61031306
104	0xbf16fac7	-0.58976406
105	0xbe3f2c06	-0.18669137
106	0x3deeba54	0.11656633
107	0x3e856bae	0.26058716
108	0xbfd39550	-1.6529942
109	0x3f0c5313	0.5481426
110	0xbfcb52e2	-1.5884669
111	0x3f86cd45	1.0531393
112	0xbd6a389a	-0.057182886
113	0xbe5a35f9	-0.21309651
114	0xbfa4deac	-1.2880454
115	0xbf13b59c	-0.5769899
116	0x3e6cbae4	0.23118168
117	0xbca27007	-0.01982881
118	0xbe26af2e	-0.16277763
119	0xc017d4b2	-2.372357
120	0xbfbf3f5d	-1.4941212
121	0xbe8fa823	-0.28057966
122	0x3e181250	0.14850736
123	0xbfc9c098	-1.57619
124	0xbf718737	-0.94346946
125	0xbfcd9f13	-1.6064171
126	0xbf4bd0fc	-0.7961576
127	0x3e8d6a2e	0.2762007
128	0xbf913c4c	-1.1346526
129	0xc00e03b2	-2.2189755
130	0x3e342697	0.17592846
131	0x3f4f8de9	0.8107591
132	0xbf2ef93f	-0.6834907
133	0xbf7b1736	-0.9808229
134	0xbf29dc93	-0.66352195
135	0x3fe80484	1.8126378
136	0xbf8d68df	-1.1047629
137	0xbec811c2	-0.39076048
138	0xbe9de4fd	-0.30838767
139	0x3e14e444	0.14540201
140	0xbf6f8a37	-0.93570274
141	0xbfb794ae	-1.4342248
142	0xc01f95eb	-2.4935253
143	0x3fa2bd44	1.2714009

dec_lstm.weight_ih_l0 f4 [144, 15]
0	0x3cc244fa	0.023714531
1	0xbe20c708	-0.15700924
2	0x3d9f17bf	0.07768201
3	0x3ec7fe6d	0.390613
4	0xbda87f63	-0.08227422
5	0xbc852ae7	-0.016255809
6	0x3de0bc14	0.10973373
7	0xbebccc26	-0.36874503
8	0xbe84cf99	-0.25939634
9	0xbde40e7e	-0.11135577
10	0x3e166802	0.14688113
11	0xbd600068	-0.054687887
12	0xbe40a20d	-0.18811817
13	0x3e4cf186	0.20014009
14	0x3e527c7f	0.20555304
15	0x3e599722	0.21249059
16	0x3a8f988e	0.0010955499
17	0xbf0b2596	-0.54354227
18	0x382303bb	3.8865703e-05
19	0xbf2f1299	-0.6838775
20	0xbc9bf287	-0.019036544
21	0x3c204a2c	0.009783309
22	0x3d8c4cc5	0.0685058
23	0xbc4908cb	-0.012270163
24	0xbd909d95	-0.070613064
25	0x3df77a0e	0.12083827
26	0x3ddb4ee6	0.10708408
27	0xbdc8095b	-0.097674094
28	0x3d79780c	0.0609055
29	0xbc8424ce	-0.016130831
30	0x3e9f764a	0.31144935
31	0xbd92723f	-0.07150697
32	0xbd8efbb9	-0.06981606
33	0x3d9184b5	0.0710539
34	0x3d861fa6	0.06549005
35	0xbc6cbc8f	-0.014449253
36	0xb9fe3b88	-0.0004849101
37	0xbeb69b45	-0.35665336
38	0x3e213407	0.15742503
39	0x3dbd91ae	0.09256302
40	0x3e3efecd	0.18651886
41	0xbd94e1dd	-0.072696425
42	0xbdaeb8b7	-0.08531325
43	0xbe473ecb	-0.19457547
44	0x3e89938e	0.26870388
45	0xbe98dd14	-0.2985617
46	0xbbe6812e	-0.0070344424
47	0xbece03cf	-0.4023728
48	0x3e5e72ad	0.21723433
49	0x3f1e8f46	0.6193737
50	0x3c0bf810	0.008543029
51	0x3c224046	0.009903019
52	0x3e3d2337	0.18470465
53	0xbe0b949b	-0.13630907
54	0x3d8fad8c	0.07015523
55	0xbe8e632a	-0.2781003
56	0x3cd0258e	0.025408532
57	0xbe6829cc	-0.22672194
58	0xbd214318	-0.039370626
59	0xbf06fa4c	-0.5272567
60	0x3f351f5a	0.70750964
61	0x3c8a086f	0.016849725
62	0xbc1fd15f	-0.009754508
63	0xbd177077	-0.03697249
64	0x3d6ef165	0.05833568
65	0xbcaf39b2	-0.021389816
66	0x3c386043	0.011253419
67	0xbe29c179	-0.1657771
68	0x3dae6cc1	0.08516837
69	0xbcff4341	-0.031159999
70	0x3ee69131	0.45032647
71	0x3bed67e7	0.007245052
72	0xbe4fabe6	-0.20280418
73	0x3e0bc776	0.13650307
74	0x3eabfe5e	0.33592504
75	0x3f0f9b98	0.5609679
76	0xbcb02f7b	-0.021507015
77	0x3e41f9f4	0.18943006
78	0x3da7d425	0.0819476
79	0xbd654b9e	-0.055980317
80	0xbd262ee7	-0.040572073
81	0x3cd1ba4e	0.025601532
82	0x3e4a7dd7	0.19774567
83	0x3d1c38cc	0.038140103
84	0xbd4fb174	-0.050706342
85	0x3eaba41c	0.33523643
86	0x3e4411d9	0.19147433
87	0x3d1882ea	0.037234224
88	0x3e0a8e99	0.13530959
89	0x3ce5a59f	0.028033076
90	0x3e03e85c	0.12881607
91	0xbc970217	-0.018433614
92	0xbd9cef9a	-0.07662888
93	0x3e874df3	0.26426658
94	0x3e981afe	0.29708093
95	0xbc037b0f	-0.008024945
96	0x3b79fe9c	0.0038146144
97	0xbcb8d1c8	-0.022560969
98	0xbe2b5557	-0.16731773
99	0x3e67de52	0.22643402
100	0xbdb2b2ae	-0.08725487
101	0x3dba7cd5	0.09105841
102	0x3d02bbe9	0.031917486
103	0xbdd17f0a	-0.10229309
104	0x3d8fc4a4	0.07019928
105	0x3eca6989	0.39533642
106	0x3bbcb4d5	0.0057588615
107	0x3c7ef919	0.015562319
108	0x3dcae936	0.09907763
109	0x3b0758aa	0.0020652213
110	0x3c90c12a	0.017670233
111	0x3d1426d8	0.036169857
112	0x3e6141e4	0.21997792
113	0x3e8f5de1	0.2800131
114	0xbe26b050	-0.16278195
115	0xbddba25d	-0.10724328
116	0x3c122b4f	0.008921458
117	0x3f123307	0.5710911
118	0x3ec394ef	0.38199565
119	0x3dbdf0b1	0.09274424
120	0xbd867ebd	-0.06567142
121	0x3ba5fce6	0.0050655482
122	0x3d376f1d	0.0447837
123	0x3c781f6e	0.015144212
124	0x3de581cb	0.11206397
125	0x3c81c3eb	0.015840491
126	0x3d971a20	0.0737803
127	0x3ec15708	0.37761712
128	0x3e0494d2	0.12947395
129	0x3d9ddbda	0.07707949
130	0x3d3a9ac0	0.045557737
131	0x3da53bd1	0.0806805
132	0x3db2e7a5	0.08735589
133	0x3d5fb8a9	0.054619465
134	0x3e120acd	0.14261933
135	0xbe36eba5	-0.17863329
136	0xbd24b734	-0.04021378
137	0xbee4bb8f	-0.44674346
138	0xba5f6b0f	-0.0008522728
139	0xbd89774c	-0.06712207
140	0x3d8d32db	0.068944655
141	0x3d5496be	0.05190157
142	0xbe811452	-0.25210816
143	0xbde2fa3a	-0.11082883
144	0xbdd37774	-0.10325518
145	0xbc6c1f2b	-0.014411728
146	0xbd7f362f	-0.062307533
147	0xbd116158	-0.035493225
148	0x3e0f6aca	0.1400558
149	0x3e6380dd	0.22217126
150	0xbd8924c7	-0.06696468
151	0xbdf68246	-0.120365664
152	0xbdc15421	-0.094398744
153	0x3e47f9c3	0.1952887
154	0xbe890614	-0.2676245
155	0x3d470619	0.0485898
156	0xbdf8766f	-0.121319644
157	0xbecad83e	-0.39618105
158	0x3e3f6ebf	0.1869459
159	0x3cb64681	0.022250416
160	0x3ddf8e7b	0.10915848
161	0x3d25a99f	0.040444966
162	0xbda499b4	-0.08037129
163	0xbcdfda11	-0.027325662
164	0xbe1f57a7	-0.1556078
165	0x3e701521	0.2344556
166	0xbc99be86	-0.018767606
167	0x3d4890d5	0.048966248
168	0xbdc19d62	-0.094538465
169	0xbde196bb	-0.11015078
170	0x3c97f138	0.01854764
171	0x3c230825	0.009950672
172	0x3d92c653	0.071667336
173	0x3df55d9d	0.11980746
174	0xbc4d4ed7	-0.012531004
175	0xbe43fd2c	-0.19139546
176	0x3d056a86	0.03257229
177	0x3da278c1	0.07933188
178	0x3dfd2845	0.123611964
179	0xbccaae8d	-0.024741435
180	0xbdc7aaeb	-0.09749397
181	0x3c519dc8	0.012793966
182	0x3e82a70f	0.2551808
183	0x3d9d3c7e	0.076775536
184	0x3cc1d8a0	0.023662865
185	0xbca63097	-0.020286841
186	0xbc476fe1	-0.01217267
187	0xbe887d70	-0.266582
188	0xbe2facd2	-0.1715577
189	0x3e6c8fe5	0.23101766
190	0x3e963b09	0.29341915
191	0x3b2a8fd9	0.0026025681
192	0x3de057f5	0.109542765
193	0xbe05e083	-0.13073926
194	0x3e05a11d	0.13049741
195	0x3d03158b	0.032002967
196	0x3cd4e318	0.025987193
197	0x3d68839c	0.056766137
198	0x3d517c80	0.051144123
199	0x3c2dac54	0.010600168
200	0xbb9066ea	-0.0044067996
201	0xbcbc5849	-0.022991316
202	0xbd46c644	-0.048528925
203	0xbe3b9f53	-0.18322496
204	0xbf0553e7	-0.5208115
205	0xbdbd5229	-0.092441864
206	0x3ec4509f	0.3834276
207	0xbda1abfa	-0.0789413
208	0xbebcfcb1	-0.36911538
209	0xbd2737f4	-0.040824845
210	0x3db84867	0.08998185
211	0xbc799241	-0.015232624
212	0x3ddaed73	0.10689821
213	0x3ded3d79	0.115839906
214	0x3e06cb39	0.13163461
215	0xbbcf0270	-0.0063174292
216	0x3b8a4b4a	0.004220401
217	0x3d97497c	0.07387063
218	0x3da0e787	0.0785666
219	0xbec27306	-0.3797838
220	0x3ccd752f	0.025080292
221	0x3a836257	0.0010023814
222	0x3c1b51b0	0.009479925
223	0x3e2e0f86	0.16998109
224	0xbdf4855d	-0.119394995
225	0x3ec5c2f8	0.38625312
226	0xbc8c92ac	-0.017159782
227	0xbe1fe6fb	-0.15615456
228	0xbf38342b	-0.719546
229	0xbd4a306d	-0.04936259
230	0xbbc497a9	-0.0059995246
231	0xbcb95cb8	-0.02262722
232	0x3e80ce69	0.25157478
233	0x3c7ae9d7	0.015314541
234	0xbd423c00	-0.0474205
235	0x3bd8f7db	0.0066213435
236	0xbd801312	-0.062536374
237	0x3ce737d9	0.028224872
238	0xbb71bee0	-0.0036887452
239	0x3d0d1c55	0.034450848
240	0xbda2ca07	-0.0794869
241	0xbba892cc	-0.0051444527
242	0xbed68750	-0.4190011
243	0xbd207d00	-0.03918171
244	0x3d6b08d0	0.05738145
245	0xbbccd088	-0.006250445
246	0x3d0178cc	0.03160934
247	0xbd8d7e8f	-0.06908905
248	0xbe188082	-0.14892772
249	0xbe6f8895	-0.23391946
250	0x3d21f3ff	0.039539333
251	0xbed261a7	-0.41090128
252	0xbe07767a	-0.13228789
253	0xbd83e6ba	-0.06440492
254	0x3dedf993	0.11619868
255	0x3e87fc8a	0.2655986
